save/autoencoder/IP/IP_40.pt (torch, 66527 bytes, 4 tensors)

encoder.0.weight f4 [40, 200, 1, 1]
0	0xbd21f5b5	-0.039540965
1	0x3e8bfb23	0.2734004
2	0xbdaec018	-0.08532733
3	0xbd010b00	-0.03150463
4	0xbd49781a	-0.049186803
5	0xbd62d6d4	-0.055380657
6	0xbd6f5de9	-0.05843917
7	0xbd58936b	-0.052874964
8	0xbd70a525	-0.058751244
9	0xbd81ed1f	-0.063440554
10	0xbde20b71	-0.110373385
11	0xbe7ef60f	-0.24898551
12	0x3d1d2061	0.038360957
13	0xbdccbcee	-0.09996973
14	0xbd310461	-0.043217067
15	0xbd55aad0	-0.052164853
16	0x3e5ea7aa	0.21743646
17	0xbd9ae3b6	-0.07562964
18	0x3c961737	0.018321617
19	0xbd93de12	-0.07220091
20	0xbce09a72	-0.027417395
21	0x3bdf0887	0.0068064365
22	0x3cbd286e	0.023090567
23	0x3de5c10f	0.11218464
24	0x3dc9708a	0.09835918
25	0x3d5aa81a	0.05338297
26	0xbc9ef89f	-0.019405661
27	0xbc5f9d10	-0.013648286
28	0xbc3c09ac	-0.011476915
29	0x3e14115f	0.14459752
30	0xbe1890a5	-0.14898928
31	0x3b7783c6	0.0037767752
32	0xbdb6810e	-0.08911334
33	0xbdd66926	-0.10469274
34	0xbdbcb482	-0.09214117
35	0x3e0c36b9	0.1369275
36	0x3d57f2a7	0.052721646
37	0x3bc9793f	0.006148487
38	0xbca196a5	-0.019725153
39	0xbe4708e4	-0.19436985
40	0xbd5177e3	-0.051139724
41	0xbd71aefc	-0.05900477
42	0xbd356595	-0.04428633
43	0xbd373229	-0.04472557
44	0xbd2c83d6	-0.042117916
45	0x398480df	0.00025273018
46	0xbd010b9f	-0.031505223
47	0xbcd4c940	-0.02597487
48	0xbd096989	-0.03354791
49	0xbd4e1b57	-0.050319042
50	0xbcf5d246	-0.030007493
51	0xbca92f1e	-0.02065235
52	0xbc41fcde	-0.011840073
53	0x3d53ac67	0.051678088
54	0x3cba62e5	0.022752235
55	0x3d0da128	0.03457752
56	0xbd4c07c0	-0.04981208
57	0x395452d1	0.00020248747
58	0x3b3aa6f7	0.0028480866
59	0x3c52e93f	0.012872993
60	0x3d9415b1	0.072307
61	0x3e1d6d36	0.15373692
62	0x3d61d3ad	0.05513351
63	0x3cdcbc93	0.026945388
64	0x3d34d297	0.044146147
65	0x3d6b67be	0.057471983
66	0x3d80bf0a	0.06286438
67	0x3d354e2a	0.044263996
68	0x3d3f7173	0.046739053
69	0x3d4bca6f	0.049753603
70	0x3d08ebad	0.033427883
71	0x3d4bc3a4	0.049747124
72	0x3dd5ecd8	0.10445565
73	0x3e489a3b	0.19590084
74	0xbd75f8fd	-0.060051907
75	0x3da86d02	0.082239166
76	0x3b96fb4f	0.004607595
77	0x3bc46a96	0.0059941513
78	0x3c345d3b	0.011008556
79	0x3c253466	0.010083294
80	0x3c5990b7	0.013279132
81	0x3c4aa8cc	0.012369346
82	0x3c1a62d3	0.009422976
83	0x3bf1cad0	0.0073789135
84	0xbb673541	-0.0035279545
85	0xbc7167aa	-0.014734188
86	0x3dde8366	0.10864906
87	0xbe2257b8	-0.15853775
88	0x3e0f228d	0.13978024
89	0xbe304395	-0.1721328
90	0xbd106669	-0.035253916
91	0x3ba15880	0.00492388
92	0xbbac6ac8	-0.0052617528
93	0xbc617c95	-0.013762613
94	0xbc3bf32f	-0.011471554
95	0xbbc608bf	-0.006043523
96	0xbc611c18	-0.013739608
97	0xbbf9f8d0	-0.0076285377
98	0xbc13df88	-0.009025462
99	0xbb9271ee	-0.004469148
100	0xbc9a5886	-0.01884104
101	0xbc33b8d5	-0.01096936
102	0xbb8ba5e8	-0.004261721
103	0x3b22f317	0.002486413
104	0xbade2792	-0.0016949049
105	0xbbc3e288	-0.0059779324
106	0xbcfd0d10	-0.030890018
107	0xbd46be48	-0.04852131
108	0xbc99ce48	-0.01877512
109	0xbac80278	-0.0015259525
110	0x3be6c488	0.0070424713
111	0xbbb69970	-0.0055724904
112	0xbc0b3a5c	-0.008497801
113	0xbd3824df	-0.044957038
114	0xbc6ef796	-0.014585396
115	0x3ac0cfd0	0.001471037
116	0xbda83d3f	-0.08214807
117	0xbd54fbf8	-0.05199811
118	0xbcb04cb1	-0.021520944
119	0xbd10db7a	-0.03536556
120	0xbd16779d	-0.036735166
121	0xbd25a54b	-0.04044084
122	0xbc93edf3	-0.018057799
123	0xbd2fd7cf	-0.04293042
124	0xbd6855df	-0.056722518
125	0xbd82f3a0	-0.06394124
126	0x3c5702a4	0.013123188
127	0xbcbd3aa6	-0.023099255
128	0x3d3a11ce	0.045427136
129	0x3cc0e02e	0.023544397
130	0xbd1bebd6	-0.038066708
131	0xbc3e90ef	-0.011631235
132	0xbcb1b9f8	-0.021695122
133	0xbd815f13	-0.06316962
134	0x3bfbb952	0.007682004
135	0xbd6225fe	-0.055212013
136	0xbb35446b	-0.0027659188
137	0xbc98f2e8	-0.018670514
138	0x3c86f522	0.01647431
139	0xb80b0c60	-3.3151708e-05
140	0xbc098d86	-0.008395558
141	0xbd2822f0	-0.041048944
142	0xbc95dcd3	-0.018293774
143	0x3abbf84b	0.0014340965
144	0x3aebabb3	0.0017980248
145	0xbaad6e21	-0.0013231674
146	0xbd0a2472	-0.033726163
147	0xbc8d8ccb	-0.01727905
148	0x3c5a1be8	0.013312317
149	0xbd185726	-0.037192486
150	0xbc727408	-0.014798172
151	0xbc3603b5	-0.011109282
152	0xbd3c7959	-0.046014164
153	0xbd29d8c7	-0.0414665
154	0x3cc9db02	0.024640564
155	0xbd469582	-0.048482426
156	0xbba9cb3f	-0.0051816995
157	0x3cbeb32a	0.023278791
158	0x3cc9b5cb	0.024622818
159	0x3c05d5fe	0.0081686955
160	0xbd7e5b48	-0.06209877
161	0x3c9d6b7b	0.01921629
162	0x3cd9e62c	0.026599012
163	0xbd168f1e	-0.03675758
164	0xbd365eab	-0.044523876
165	0xbd5dbb46	-0.054133676
166	0x3cae6970	0.02129051
167	0xbd5e0f16	-0.054213606
168	0xbbc07ecc	-0.0058744904
169	0x3bfc63c5	0.007702323
170	0xbd191577	-0.037373986
171	0xbc200415	-0.009766598
172	0xbb999dda	-0.004688007
173	0xbd06321c	-0.03276263
174	0xbb3c3679	-0.0028718992
175	0xbd4e419b	-0.050355535
176	0xbc8e875a	-0.017398525
177	0xbd288980	-0.041146755
178	0x3cac98f3	0.021069026
179	0x3d1c79c7	0.038202073
180	0xbd313367	-0.04326191
181	0xbb8b92a6	-0.004259425
182	0x3cdb0aa1	0.026738467
183	0xbce36a93	-0.02776078
184	0xbc9a663b	-0.018847575
185	0x3c7447aa	0.014909664
186	0xbc3bde51	-0.011466579
187	0xbc944c04	-0.018102653
188	0xbc03e2fb	-0.008049722
189	0x3cb53f5f	0.022124944
190	0xbcf8184a	-0.03028502
191	0xbce00b90	-0.027349263
192	0xbc364067	-0.011123753
193	0xbc28376e	-0.010267122
194	0xbc9f62d8	-0.019456312
195	0xbc8950da	-0.016762186
196	0x3beef3b3	0.007292235
197	0x3bb2f7d9	0.0054616746
198	0x3b626e7c	0.0034550717
199	0x3bcf151b	0.0063196546
200	0xbe46e074	-0.1942156
201	0x3d1b3c1b	0.037899118
202	0xbd3f70d2	-0.046738453
203	0xbd2bdcbb	-0.04195855
204	0xbcd03730	-0.02541694
205	0xbc62e3e7	-0.013848281
206	0xbc1b0d21	-0.009463579
207	0xbbc2b97a	-0.0059425207
208	0xbafba9ef	-0.0019200424
209	0xbaf0ac03	-0.001836181
210	0xbca97671	-0.02068636
211	0xbe32317b	-0.17401688
212	0xbdb383e4	-0.087653905
213	0xbcf6836c	-0.030091964
214	0xbca40361	-0.020021142
215	0xbcc11ae8	-0.0235724
216	0x3df5191c	0.1196768
217	0x3dd554a7	0.10416537
218	0xbb7ef160	-0.0038901195
219	0x3dce5832	0.10075416
220	0x3d553a3f	0.0520575
221	0xbd617a50	-0.055048287
222	0x3d2df462	0.04246939
223	0x3d69aee1	0.057051543
224	0x3db12651	0.086498864
225	0x3daa4aa3	0.08315017
226	0x3b1082ed	0.0022050694
227	0x3cc1b123	0.023644036
228	0x3c99fce5	0.018797347
229	0x3ceac771	0.028659554
230	0x3d4f6d7b	0.050641518
231	0xbac16006	-0.0014753349
232	0xbc9966cf	-0.01872578
233	0xbc52ee16	-0.012874147
234	0xbe0502cb	-0.12989347
235	0xbe02df33	-0.12780456
236	0xbda05692	-0.07829012
237	0xbd9e4cd6	-0.07729499
238	0xbd99b665	-0.07505492
239	0x3d113dd3	0.03545935
240	0xbd0b9d0f	-0.03408533
241	0xbd0ab1bf	-0.033860918
242	0xbcd7e356	-0.02635352
243	0xbc869ded	-0.016432727
244	0x3cddeceb	0.02709051
245	0xbcce84ee	-0.02520987
246	0x3d03e4de	0.032200687
247	0x3c6423e0	0.013924569
248	0x3ca1c952	0.019749317
249	0x3cb222f2	0.021745179
250	0x3cdacf69	0.026710229
251	0x3d1d454b	0.03839616
252	0x3d2fad50	0.042889893
253	0xbd30d82a	-0.0431749
254	0x3d3b33c1	0.045703653
255	0x3d9cc6ee	0.0765513

encoder.0.bias f4 [40]
0	0x3d199fd3	0.037505936
1	0x3d03eed6	0.032210194
2	0xbcb7f39a	-0.022455025
3	0xbd8bc122	-0.068239465
4	0x3d8ab523	0.0677283
5	0x3dbbc75c	0.09168884
6	0xbc4c9c06	-0.012488371
7	0xbc7b3098	-0.01533141
8	0x3d2d4e4c	0.042310998
9	0xbcae1ecf	-0.021254925
10	0xbda5632d	-0.08075557
11	0x3d67774b	0.05651025
12	0xbd021d0a	-0.031765975
13	0xbbb1bf97	-0.0054244506
14	0x3d160c43	0.036632787
15	0x3cd84eca	0.026404757
16	0x3d65745d	0.056019176
17	0x3d09c64e	0.033636384
18	0x3c9e6ef4	0.019340016
19	0xbd050301	-0.032473568
20	0xbd81d44a	-0.06339319
21	0xbc5143d3	-0.012772518
22	0xbd921c0e	-0.07134257
23	0x3b585d1e	0.0033014487
24	0x3c4501ae	0.012024326
25	0xbc79b325	-0.015240465
26	0x3d88a8a8	0.066727936
27	0x3c734d8e	0.014850033
28	0xbc026f48	-0.007961102
29	0x3d977237	0.07394832
30	0x3cd1cf7f	0.025611637
31	0x3c5f06d2	0.013612466
32	0x3d6f25a3	0.058385503
33	0xbd87ba3c	-0.06627318
34	0x3d334726	0.043769024
35	0xbc98d9fd	-0.018658632
36	0x3cb673a6	0.022271942
37	0x3db09fdc	0.08624241
38	0xbca578e0	-0.02019924
39	0x3cb726d8	0.02235739

decoder.0.weight f4 [200, 40, 1, 1]
0	0xbd186ba2	-0.03721202
1	0xbec06ab3	-0.37581405
2	0xbdbcc7d8	-0.09217805
3	0xbe012f41	-0.12615682
4	0xbddb1637	-0.106975965
5	0xbd084ff3	-0.03327937
6	0xbf25f4eb	-0.6482684
7	0xbe28642e	-0.16444466
8	0xbe04ecef	-0.12981008
9	0xbe73261b	-0.23745005
10	0x3e44ad4d	0.19206734
11	0xbd4f3fbd	-0.050597895
12	0x3e583aea	0.21116224
13	0xbe28366a	-0.16427007
14	0xbd95b96c	-0.07310757
15	0xbd3e2b68	-0.046428114
16	0xbea2ff78	-0.31835532
17	0xbe1f9d71	-0.15587403
18	0xbdd4f9ee	-0.10399233
19	0x3e2f45c7	0.17116462
20	0x3e73f15b	0.23822539
21	0x3d2f8cfc	0.042859063
22	0x3e02a820	0.12759447
23	0x3ef1a656	0.47197217
24	0xbe90521b	-0.28187642
25	0xbe1eefd3	-0.15521173
26	0xbee3bee4	-0.44481575
27	0xbea69d99	-0.32542112
28	0xbe4c64e8	-0.19960368
29	0xbe292502	-0.16518024
30	0xbd83c3c4	-0.06433824
31	0x3deac0a6	0.11462526
32	0xbd897e45	-0.06713537
33	0xbe52cdf9	-0.20586385
34	0x3e5a404b	0.21313588
35	0xbd304c33	-0.04304142
36	0x3f0f3330	0.5593748
37	0x3e00b295	0.12568124
38	0x3ecadc72	0.3962131
39	0x3e0d7c68	0.13816988
40	0x3ea9dfe7	0.33178636
41	0xbb4413be	-0.0029918994
42	0xbc26da58	-0.010183893
43	0x3d421c44	0.047390237
44	0xbea87892	-0.32904488
45	0x3ec788f7	0.38971683
46	0xbe9f9be1	-0.31173614
47	0x3d932096	0.0718395
48	0x3d07ccee	0.03315442
49	0x3d9fa869	0.077957936
50	0xbd1b1f01	-0.037871365
51	0xbe2405ab	-0.16017787
52	0xbe080a62	-0.1328521
53	0xbc1b8bad	-0.0094937505
54	0xbbb7a947	-0.005604896
55	0xbeb3d453	-0.35122928
56	0x3e4b5d87	0.19859897
57	0xbda0c1c3	-0.07849457
58	0xbe73947d	-0.23787113
59	0xbe031be1	-0.12803604
60	0xbe8ca8c7	-0.27472517
61	0xbe0d1762	-0.13778451
62	0x3dcfd43d	0.10147903
63	0x3c0c2b36	0.008555224
64	0xbe8570ba	-0.26062566
65	0x3da2be12	0.07946409
66	0xbe8ae220	-0.27125645
67	0xbdf05476	-0.1173486
68	0xbe8b8663	-0.27250966
69	0x3e4d786c	0.20065469
70	0x3df37459	0.11887426
71	0x3e55a7e8	0.20864832
72	0x3e5e74f5	0.21724303
73	0xbe4d76fe	-0.20064923
74	0xbe72accf	-0.23698734
75	0x3db6faf2	0.08934583
76	0xbd5ae85b	-0.053444248
77	0x3e7ab8b5	0.24484523
78	0xbeb8915b	-0.36048397
79	0x3e692d67	0.22771226
80	0xbe1df156	-0.15424094
81	0xbcb55a59	-0.022137808
82	0x3c82bcf9	0.01595925
83	0x3d9a9928	0.075487435
84	0x3dc7bbe5	0.09752635
85	0x3c8f7832	0.017513368
86	0x3c97a0ca	0.018509287
87	0xbe220eba	-0.1582593
88	0x3c5262db	0.012840952
89	0xbc458e96	-0.012057921
90	0x3cc64aa1	0.024205508
91	0x3dbf07f8	0.09327692
92	0x3c9eda03	0.019391065
93	0xbd73d16c	-0.059525892
94	0xbdc68a36	-0.096943304
95	0xbe625efe	-0.22106549
96	0x3d60ebac	0.054912254
97	0x3e0486c7	0.12942038
98	0xbdd91b59	-0.10600919
99	0xbe3b7822	-0.18307546
100	0x3d96eb0e	0.07369052
101	0x3d48b1a1	0.048997525
102	0x3d6bd745	0.057578344
103	0x3e0b77b3	0.1361988
104	0x3d212a06	0.039346717
105	0x3e7f668e	0.24941465
106	0x3d24dd36	0.040250026
107	0x3d9289a1	0.07155157
108	0x3d6413ae	0.05568283
109	0x3e1e4966	0.15457687
110	0x3da6f0aa	0.08151372
111	0x3e298f87	0.16558658
112	0xbd747d77	-0.059689965
113	0x3e1d1cd7	0.15343033
114	0xbd758be8	-0.059947878
115	0xbd2467b4	-0.04013796
116	0x3e009b24	0.12559181
117	0xbdda265b	-0.10651847
118	0xbc912701	-0.017718794
119	0x3d5ddb1e	0.054164045
120	0xbdb27cf3	-0.087152384
121	0xbd03cc06	-0.032176994
122	0x3a097ffd	0.0005245207
123	0x3d75c0bd	0.059998263
124	0x3a05a3d5	0.000509796
125	0x3d176881	0.036964897
126	0xbbde6c1a	-0.006787789
127	0xbd015a01	-0.031579975
128	0x3cf47207	0.029839529
129	0xbc8cce59	-0.017188238
130	0xbda0c8a2	-0.07850768
131	0x3c38479e	0.011247544
132	0x3d0a39ac	0.033746406
133	0xbd45ca04	-0.04828836
134	0xbda5bb4d	-0.080923654
135	0xbe4394b7	-0.19099699
136	0x3dbfe5b0	0.09369981
137	0x3d85b03d	0.065277554
138	0xbd1ecf47	-0.038771894
139	0xbd8d5def	-0.06902682
140	0x3d745ce8	0.059658915
141	0x3cdaecc6	0.02672423
142	0x3d8eaeed	0.06966958
143	0x3e0bea87	0.13663684
144	0x3cc95917	0.024578614
145	0x3e4b50eb	0.19855087
146	0xbd54588b	-0.051842254
147	0xbbb9cd6e	-0.005670241
148	0x3aa87093	0.0012850933
149	0x3ddf4983	0.10902693
150	0x3d67d7a8	0.05660215
151	0x3de8d461	0.11368633
152	0xbd3597b4	-0.04433413
153	0x3d84df79	0.064879365
154	0xbd0ad19f	-0.033891317
155	0xbc5c5f07	-0.013450391
156	0x3de0a081	0.10968114
157	0x3cafb547	0.021448744
158	0xbc2339e3	-0.009962532
159	0x3d5c71f5	0.053819615
160	0xbdead5ea	-0.11466582
161	0xba616f51	-0.0008599656
162	0x3cabc105	0.020966062
163	0x3d8b007f	0.06787204
164	0x3b9ffa86	0.0048821596
165	0x3b83abd7	0.0040182876
166	0x3b4b1879	0.0030989929
167	0xbd913302	-0.07089807
168	0x3c832e05	0.016013155
169	0xbc8dd46c	-0.017313205
170	0xbd985aec	-0.07439217
171	0x3b5082e0	0.0031816289
172	0x3d3330f0	0.043747842
173	0xbce78bc0	-0.02826488
174	0xbdb31f73	-0.08746233
175	0xbe371b3b	-0.17881481
176	0x3dd36720	0.10322404
177	0x3da75424	0.081703454
178	0xbcfe9e45	-0.031081328
179	0xbd7eac00	-0.06217575
180	0x3d94fc5b	0.072746955
181	0x3ca7720f	0.02044013
182	0x3d9d93f4	0.076942354
183	0x3e07740b	0.1322786
184	0x3d3249f9	0.043527577
185	0x3e5e1d04	0.21690756
186	0xbd09ee61	-0.0336746
187	0xbc0f419b	-0.008743669
188	0x3bd41057	0.0064716744
189	0x3dd776f1	0.10520733
190	0x3d8210be	0.063508496
191	0x3dc0ef5f	0.094206564
192	0xbd914ba3	-0.07094505
193	0x3d993d7b	0.074824296
194	0xbcfae74d	-0.030627871
195	0xbb8ac248	-0.004234586
196	0x3dcf6efe	0.10128592
197	0x3c0f1c6a	0.008734802
198	0xbc533a39	-0.012892299
199	0x3cc1541b	0.023599675
200	0xbe05bd7e	-0.13060567
201	0x3c9de595	0.019274512
202	0x3cc1d335	0.023660282
203	0x3da410fc	0.08011052
204	0xbc96e40e	-0.018419292
205	0x3b905df5	0.004405732
206	0x3be30e89	0.006929223
207	0xbdb004e7	-0.08594685
208	0x3c2792aa	0.0102278385
209	0xbccd765f	-0.025080858
210	0xbdb293b6	-0.0871958
211	0xbb219cbe	-0.0024660076
212	0x3d4376da	0.047720768
213	0xbd09053e	-0.033452265
214	0xbdc2ff2c	-0.095213264
215	0xbe3d07cf	-0.1846001
216	0x3de63965	0.11241416
217	0x3dc20899	0.09474296
218	0xbca2e6a3	-0.019885367
219	0xbd7531f2	-0.059862085
220	0x3d9ca175	0.07647983
221	0x3c9310b5	0.017952302
222	0x3dc11490	0.0942775
223	0x3e244085	0.16040237
224	0x3d21498a	0.039376773
225	0x3e677a26	0.2260519
226	0xbcf2df19	-0.029647397
227	0xbcd3b9b9	-0.025845395
228	0xbc040130	-0.008056924
229	0x3deb65fb	0.114940606
230	0x3d94db62	0.072684065
231	0x3da3b9fb	0.07994457
232	0xbdbb1565	-0.0913494
233	0x3d8cab74	0.068686396
234	0xbd03ffa5	-0.032226223
235	0x3b6b055b	0.0035861346
236	0x3dcd5eb3	0.10027828
237	0x3cc506d3	0.024051106
238	0xbcb59df5	-0.022170046
239	0x3c8e4136	0.01736508
240	0xbe11808a	-0.1420919
241	0x3ce6d960	0.028179824
242	0x3ca43e50	0.020049244
243	0x3d910f26	0.070829675
244	0xbce420b9	-0.027847635
245	0xbbf2f6de	-0.007414683
246	0x3c36a9ba	0.011148864
247	0xbdc279c9	-0.09495885
248	0x3bab0519	0.0052191135
249	0xbd087772	-0.033317037
250	0xbdb31573	-0.087443255
251	0xbc1de97d	-0.0096381875
252	0x3d605679	0.054769967
253	0xbbeaf586	-0.007170382
254	0xbdc3cc7f	-0.09560489
255	0xbe3a5666	-0.18197021

decoder.0.bias f4 [200]
0	0x3dc51a17	0.09624117
1	0xbd9d906f	-0.07693564
2	0x3beb4b77	0.007180627
3	0x3d12c179	0.03582904
4	0xbb6f65a9	-0.00365291
5	0x3a9bffee	0.0011901835
6	0x3c83befb	0.016082278
7	0x3c5da803	0.013528827
8	0x3c331cd4	0.010932166
9	0x3bfd7cda	0.0077358307
10	0x3d26480b	0.04059605
11	0x3da462c9	0.08026654
12	0x3d1c19b1	0.03811044
13	0x3d37bb25	0.04485621
14	0x3cf07763	0.029353803
15	0x3cda5fb8	0.02665697
16	0x3db4c2e6	0.088262364
17	0xbc1dc449	-0.009629318
18	0xbd2d48ca	-0.042305745
19	0x3cb47963	0.022030538
20	0x3d5f9ae9	0.054591093
21	0x3c15c640	0.009141505
22	0xbde2e577	-0.11078923
23	0xbc57a1c8	-0.01316113
24	0x3d20157a	0.03908298
25	0x3d6d0a4f	0.05787116
26	0xbd9b09f3	-0.07570257
27	0xbcb23f8b	-0.021758815
28	0xbd11c29b	-0.03558598
29	0x3a8ea3ec	0.0010882593
30	0xbd6274f9	-0.055287335
31	0xbcf0f047	-0.029411448
32	0xbd85a01e	-0.065246806
33	0x3cf03d47	0.029326094
34	0x3d3833d6	0.04497131
35	0x3be61578	0.0070216022
36	0xbcaaddfc	-0.020857804
37	0xbbd0718c	-0.006361192
38	0xbbd3cc81	-0.0064635877
39	0x3d139c72	0.03603787
40	0xbc933dc3	-0.017973786
41	0x3bee12d0	0.007265426
42	0x3c500c60	0.012698263
43	0x3c3a5404	0.01137257
44	0x3bb02c72	0.005376392
45	0xbcdd998b	-0.027050754
46	0x3bc36776	0.0059632612
47	0xbc431876	-0.011907687
48	0x3bd20aca	0.0064099776
49	0xbc171246	-0.009220665
50	0xbbc650a7	-0.006052095
51	0x3b5e2764	0.003389799
52	0xbc60ec9f	-0.01372829
53	0xbcad6350	-0.02116552
54	0x3d1b3cf8	0.03789994
55	0x3d8bd61d	0.06827948
56	0xbb6bb736	-0.0035967357
57	0xba493f83	-0.00076770055
58	0xb9f449e5	-0.00046594362
59	0xbce2a014	-0.027664222
60	0x3d554bbc	0.05207418
61	0xbce21a0e	-0.027600314
62	0x3c35e77a	0.011102552
63	0xbae32e82	-0.0017332586
64	0xbc0e5699	-0.008687639
65	0x3caa6ce7	0.020803882
66	0x3c585c3e	0.013205586
67	0x3c0361d6	0.008018931
68	0x3c99bea2	0.018767659
69	0x3cfc8a94	0.030827798
70	0x3b7f16d5	0.003892352
71	0xbc2ba291	-0.010475771
72	0xbd4ee78e	-0.050513797
73	0xbd251800	-0.04030609
74	0x3ca0eaa1	0.01964313
75	0xbd31b62a	-0.043386616
76	0xbc6d7792	-0.01449384
77	0x3a92f2cd	0.0011211276
78	0xbc541c23	-0.012946161
79	0xbc666b18	-0.014063619
80	0xbc8ac99e	-0.016941842
81	0xbd2cadc8	-0.04215792
82	0x3c2546d3	0.010087687
83	0xbbbf1c9f	-0.0058322693
84	0xbd50ef48	-0.051009446
85	0xbd2482f1	-0.040163938
86	0x3d907bc0	0.070548534
87	0xbd2b7375	-0.041858155
88	0x3d9684a7	0.0734952
89	0x3d9a50eb	0.07534965
90	0x3daa9193	0.08328547
91	0xbcdc962b	-0.026927074
92	0xbd3e3a36	-0.046442233
93	0xbd8fa128	-0.0701316
94	0xbcbbe637	-0.022936923
95	0x3c312733	0.0108125685
96	0x3bf876c6	0.0075825183
97	0xbd1dbdb8	-0.038511008
98	0xbcefff5c	-0.02929657
99	0xbcbc61c1	-0.022995831
100	0xbc3c35f0	-0.011487469
101	0xbc1e3487	-0.009656078
102	0xb8f09de4	-0.00011473501
103	0xba49165d	-0.0007670874
104	0x399f8d76	0.0003043224
105	0xba67b7f8	-0.0008839364
106	0x3aa3b960	0.0012491159
107	0xbb9c92bd	-0.0047782348
108	0xbbab5173	-0.0052282154
109	0xbaa2ce96	-0.0012421187
110	0x3ace2d7d	0.0015730109
111	0xbb3cbccf	-0.0028799062
112	0xbbc374d5	-0.005964855
113	0xbb83624a	-0.0040095197
114	0xbc1bc789	-0.009508022
115	0xbc29eb1e	-0.010370998
116	0xbc189ccf	-0.00931473
117	0xbb874f98	-0.0041293614
118	0xbc0faba9	-0.008768954
119	0xbc16ff31	-0.009216116
120	0xbc1fd5ca	-0.009755561
121	0xbc3ce3c0	-0.011528909
122	0xbbe59710	-0.0070065334
123	0xbba80bef	-0.0051283757
124	0xbc4cdb39	-0.012503439
125	0xbc4c1864	-0.012456987
126	0xbc1f4e13	-0.009723204
127	0xbc16edf1	-0.009212003
128	0xbc2e45fe	-0.010636805
129	0xbbe36e54	-0.0069406424
130	0xbc247c7f	-0.010039448
131	0xbbe63f52	-0.0070265913
132	0xbb7f53f9	-0.0038959964
133	0xbbd47fa5	-0.006484943
134	0xbc13c647	-0.009019441
135	0xbba0a5b6	-0.004902567
136	0xbba4128c	-0.005007094
137	0xbc179cc1	-0.009253682
138	0xbbb912ca	-0.005647992
139	0xbb794968	-0.0038038138
140	0xbb3c004f	-0.0028686707
141	0xbc048cb9	-0.0080901915
142	0xbb220113	-0.0024719879
143	0xbb4e2a6d	-0.0031458393
144	0xbb6ce7d8	-0.0036148932
145	0x3ba05b03	0.004893662
146	0xbbcc4364	-0.0062336195
147	0xbc4be755	-0.012445291
148	0xbb94f9fc	-0.004546402
149	0xbc1a2055	-0.009407123
150	0xbc247a0c	-0.010038864
151	0xbc1bf9f1	-0.00952004
152	0xbbe880da	-0.0070954384
153	0xbb01191c	-0.0019698804
154	0xbb24e99a	-0.0025163651
155	0xbb8071de	-0.003919824
156	0x3bc20e3a	0.005922106
157	0xb9abf4a0	-0.0003279792
158	0x3a8f2064	0.0010919687
159	0x3ba673d9	0.005079728
160	0x3b757cd8	0.0037458446
161	0x3b8ed49f	0.0043588425
162	0x3b9992cd	0.0046866895
163	0x3b81de25	0.0039632493
164	0x3b77fca8	0.0037839804
165	0x3b1f94e9	0.0024350232
166	0xbaa5c0aa	-0.0012645919
167	0x3a82ed5f	0.0009988955
168	0xba58e3c7	-0.00082736876
169	0xb9b5d2a4	-0.0003467995
170	0xbaac2daf	-0.0013136173
171	0xbbbdbc73	-0.005790287
172	0xbb46beb3	-0.0030326068
173	0xbb24bd36	-0.0025137193
174	0xba9b975f	-0.0011870674
175	0x3b080f5e	0.0020761113
176	0xba07b780	-0.0005177185
177	0x3ac17208	0.0014758715
178	0x3b36b01e	0.002787597
179	0xbafe64ce	-0.0019408704
180	0xba0c4c1c	-0.00053519174
181	0x3ba7ffc0	0.0051269233
182	0x381d9b06	3.7576094e-05
183	0x3a80d7ec	0.0009829975
184	0x3a9ae1bd	0.0011816543
185	0x3aa31121	0.0012441018
186	0x3ab25d23	0.0013608079
187	0xba8a6cb1	-0.0010560957
188	0x3b09dc45	0.0021035832
189	0xbada8acb	-0.0016673444
190	0xbaa3a952	-0.0012486374
191	0xbb2eeec1	-0.0026692601
192	0xbab2ad21	-0.0013631919
193	0x3b1a5c03	0.0023553378
194	0xbac88c0d	-0.0015300527
195	0xbb97e61b	-0.004635585
196	0xbacff155	-0.0015864769
197	0xbbae920b	-0.0053274683
198	0x38ac0345	8.202208e-05
199	0xbb87f5c8	-0.0041491725
